data.pth (torch, 33066 bytes, 6 tensors)

l1.weight f4 [8, 573]
00000000: 761d ef3f a61b bd3e 5599 ef3e e670 f7bd
00000010: 1b7b 9b3f 1abc 4640 b709 d43e 19ed 973f
00000020: 8b30 573f f7ec d23f bf4f 183f 754f 3a3f
00000030: 435c e13f adb1 be3f 841c 173f 83aa f73f
00000040: 7692 0040 d5ef 15be e8e5 2c40 0189 ba3f
00000050: 8ed4 6a3f b9a9 10bf dacb 04bf df10 60bd
00000060: 2e45 f4be cc4f 2240 9991 a23f 8920 9a3c
00000070: 880b 3440 d430 8c3c 5fb6 ad3c 925e 843f
00000080: af89 2c40 1bf5 7c3f 34f1 a93f 60c3 733f
00000090: a01e ae3e 567c ebbe 393d 0d40 1658 31bf
000000a0: 52d3 63bf b837 a23e bdf5 663f 31fe 4a3f
000000b0: 6ddd b1be 3cd3 d7be f127 f83e ace9 8d3f
000000c0: 00e9 b63f 3e93 c83e 5b91 bf3f e9ad 64be
000000d0: bd92 88be 9e3f c63f 22f3 bcbe edba 0040
000000e0: 0e33 4d40 8140 e13f 15e3 2140 527a 0c3e
000000f0: 20b7 0440 9ba8 0740 f1ad 2340 f664 223e
00000100: 5658 e13e 8ca2 0a3f 13f5 10bf 55e4 8fbe
00000110: 4784 7f3f 68f1 0e3f 3cbb 323d be34 c8be
00000120: e6bf a3be 40b3 1240 11aa b13f 3626 f93f
00000130: 423f 7a40 03b4 d03d f184 97be 0673 d838
00000140: de93 a73f 87ec 2340 3bd7 10bf c810 c53d
00000150: f12f 11bf 3251 ef3e 5115 893f d7e7 bb3f
00000160: a8ae bd3e de22 3240 0e3a 543f 0cf1 0d40
00000170: 54bb d43f ee24 c33f 4dd6 373f 96c4 fdbd
00000180: 9501 04bf c5c2 943f 0d55 3b40 1565 7abd
00000190: d5c0 e33e 2b50 283f 96dd 8a3e eca5 0e3d
000001a0: b8d4 52bf 462b 953f f139 f83f 51c2 c83e
000001b0: 32a9 3fbf 677a d53f 6c7e 0b40 c930 973f
000001c0: 0fbc 4a3f e1bd fc3e 4949 773f 6bab ea3e
000001d0: 9eb9 1d40 e4a0 2040 9c3f be3f 1be2 703f
000001e0: 2e54 4b40 344c 943f a773 793e 5eb2 f13f
000001f0: 7913 f23f bee3 613f ecf9 d03d 9336 ef3e
00000200: b177 1f3f 9704 223e 65e8 ba3f 713b 8c3e
00000210: 2a0b 513f e7c5 743e 3ee6 2640 363b 1d3f
00000220: 4ab2 e03e 7d90 223f fe72 d73e 2542 d73f
00000230: 8085 76ba a546 cc3f 81f1 0bbf f5ac d03f
00000240: 382b c53f fdfc d13d 1994 f23f c1bb c23e
00000250: ed4b 5340 985a bb3e aa22 523f f27c a43f
00000260: 099a f73f b55f e83d d368 d93f 7b19 e23f
00000270: f215 be3f d7fd b6be 7e42 e33f 79fd 23bf
00000280: 93b5 a3bd c76d 813f 881f dfbf 893d 3b40
00000290: 9423 263f b302 0740 0062 093d df45 a83d
000002a0: f7ed 373d 1116 52be d3a5 0ec0 f0a5 eebf
000002b0: 0970 9c3f 6726 e63e 6629 a83f 3d83 0240
000002c0: 28a3 2fbd 14fe 6f3f dde8 d23f e9f9 353e
000002d0: e14d e63f 3e97 343e 3ee0 eb3c 084e 663f
000002e0: a9ab 723f df55 29bf a880 823e f241 b93f
000002f0: 6730 803f f614 083e 901d ca3e ea06 213e
00000300: 0a19 c33f 06f6 5240 307c 47be 83dd 31be
00000310: 086b 1c40 8f17 083f cb74 fcbe 86cb 0540
00000320: 4e5f c13f b7aa b03f 391f 2a3f 149e 83bf
00000330: 7962 fd3f de37 9f3f 6da7 90bd c3f5 c5be
00000340: 80aa 2140 5a70 32bb f5ef c13e fd37 aa3f
00000350: 9f68 053f 578f d53e 8228 b53f d4dd 94be
00000360: b0a4 ff3f f692 2340 47d2 e63f c22c 1240
00000370: 8ca2 a13d 84aa 493f 6f9b bd3f 3201 9b3f
00000380: 518a 46be bb83 1b40 cc7c 323f cfe6 8c3f
00000390: 1422 3e40 6f0a 393f 5dbf 883f ad39 043f
000003a0: d264 0f40 217b bb3f 51be 09bf 9149 0340
000003b0: 91ae 293e 61a3 1b40 296b 1440 2d53 2740
000003c0: 5741 41bf 9bf5 2dbd 96bd 2740 dbd8 903e
000003d0: 773b 413f 35a2 e3be 50f9 7d3f 3b08 b63f
000003e0: 9786 d73e 637b 1140 ed56 75bf 8be3 6b3f
000003f0: aaf0 983e b14a 31bd 5fc1 9a3f 3da5 8e3e
1.8680866 0.36935157 0.4679667 -0.120820805 1.2146944 3.1052308 0.41413662 1.1869231
0.84058446 1.6478566 0.5949668 0.7277749 1.7606281 1.4897972 0.59027886 1.9348911
2.0089393 -0.1464227 2.7015324 1.457306 0.9173058 -0.56508976 -0.5187355 -0.05470359
-0.4770903 2.5361204 1.2700683 0.018814342 2.8132038 0.017113127 0.021205125 1.034136
2.6959035 0.988115 1.3276734 0.95219994 0.3400774 -0.45993298 2.2068617 -0.69275033
-0.88994324 0.31683135 0.90218717 0.79294115 -0.34739247 -0.42153347 0.48467973 1.1086936
1.4289856 0.39174837 1.4966234 -0.22331966 -0.26674452 1.5488164 -0.36904246 2.011409
3.2062411 1.759781 2.529485 0.13718536 2.073677 2.1196659 2.5574915 0.15858826
0.44012707 0.54154277 -0.56623954 -0.2810389 0.99811214 0.55837107 0.043635592 -0.3910274
-0.31982344 2.2921906 1.3880025 1.9464786 3.910111 0.101905845 -0.29593614 0.000103211074
1.3092 2.5613115 -0.56578416 0.096223414 -0.5671378 0.46741635 1.070963 1.4680127
0.37047315 2.7833781 0.82901084 2.2178373 1.6619668 1.5245645 0.7181137 -0.123910114
-0.51564914 1.1621939 2.927066 -0.061131556 0.44483057 0.65747327 0.27122182 0.034826204
-0.82355833 1.1653831 1.9392682 0.39210752 -0.74867547 1.6677979 2.1795912 1.1811763
0.79193205 0.49363616 0.965962 0.45833907 2.4644542 2.50982 1.4863162 0.9409501
3.177013 1.1585755 0.24360524 1.8882558 1.8912193 0.8823813 0.10203919 0.46721324
0.6229201 0.15822063 1.4602171 0.273891 0.8165766 0.23903619 2.6078029 0.61418474
0.43886024 0.6350172 0.4207992 1.6817061 -0.00094040483 1.5959059 -0.5466538 1.6302782
1.5403814 0.10253332 1.8951446 0.3803387 3.3015091 0.36592555 0.82084143 1.285063
1.9343883 0.1134638 1.6985115 1.7664026 1.4850447 -0.3574054 1.7754667 -0.64058644
-0.07993617 1.0111626 -1.7431498 2.9256308 0.6489804 2.1095397 0.033540726 0.08216452
0.044904675 -0.2051623 -2.228871 -1.864439 1.222169 0.44951174 1.3137634 2.0392601
-0.042880207 0.9374707 1.6477314 0.17771114 1.7992517 0.1763582 0.02879345 0.89962816
0.9479318 -0.66146654 0.25488782 1.447325 1.0014771 0.13289246 0.3947568 0.15725294
1.5242016 3.296266 -0.19480968 -0.17369656 2.4440327 0.5316095 -0.49307856 2.090547
1.510721 1.3802098 0.6645389 -1.0282617 1.9795676 1.2438924 -0.07063184 -0.38664064
2.5260315 -0.0027227611 0.37878385 1.3298336 0.52112764 0.41710922 1.4152987 -0.2907549
1.9972134 2.5558448 1.8032922 2.2839818 0.078923315 0.7877581 1.481306 1.210974
-0.19388701 2.4299152 0.69721675 1.1007937 2.97083 0.72281545 1.06834 0.51650506
2.2405286 1.4646951 -0.53806025 2.0513651 0.16570498 2.4318469 2.3190405 2.6144516
-0.75490326 -0.042470556 2.6209464 0.28290448 0.7548136 -0.44459692 0.99208546 1.4221262
0.4209487 2.273156 -0.95835763 0.9214408 0.29871112 -0.043284122 1.2090262 0.27860442

l1.bias f4 [8]
00000000: eee3 f03e 97c1 2b3f 5ecc 103f 5c68 a13f
00000010: db0f 4e3f 441a 213f a3f1 593f 0de1 423f
0.47048897 0.6709227 0.5656184 1.2609973 0.80492944 0.62930703 0.85134333 0.7612465

l2.weight f4 [8, 8]
00000000: 62a8 b9bd e733 d5bf 0fd6 31c0 32c9 0440
00000010: ad50 33be 6adb 773f 46a3 7abf 7bc7 3040
00000020: 53d7 943f 2f52 bd3f 27b9 53c0 66db 1d40
00000030: 82b7 c0bf 2148 3a40 ccf8 bf3d 82fb 0e40
00000040: adab 363e 0886 3dbe 1108 2cbe 6def 21be
00000050: d480 d43c d79a 583c f485 eabd 5871 08be
00000060: e8f1 933f 2c44 e03f f19b 11bf 4367 9bbf
00000070: 60d1 18bf 826d 9e3f 2a43 2a3f 8ba2 d7be
00000080: d678 443e da8f 95be 25d8 b13e 3f20 91bf
00000090: 2bd8 0640 7868 e13f d2e1 1740 f5c0 3abe
000000a0: d091 b93f 2a8b efbf e48d 8f3f 1705 86bf
000000b0: e97c 10bf fb12 1040 734d b33f 76e7 b63f
000000c0: f1d3 1040 d3e9 c03f e9a5 0340 8d39 98be
000000d0: 85ca 1640 0dfa adbe 4fb7 33c0 dbb4 0740
000000e0: 9882 25c0 5823 e13f e403 bf3f efd9 8440
000000f0: a37e 85bf 2599 dd3c 208a 4340 f684 c6bd
-0.090653196 -1.6656464 -2.77869 2.07478 -0.17511244 0.96819174 -0.97905385 2.7621753
1.1628212 1.4790705 -3.3081758 2.466516 -1.5056002 2.9106524 0.09373626 2.2341008
0.17838927 -0.1850816 -0.16799952 -0.1581399 0.025940336 0.01322051 -0.11451331 -0.13324487
1.1558199 1.7520804 -0.5687857 -1.2140888 -0.5969448 1.2377169 0.66508734 -0.42116198
0.1918672 -0.29211313 0.34735218 -1.1337966 2.1069438 1.7610006 2.373158 -0.1823767
1.4497623 -1.8714345 1.1215177 -1.0470303 -0.564406 2.2511585 1.4008011 1.4289386
2.2629359 1.5071357 2.0570014 -0.29731408 2.3561108 -0.33979836 -2.8080633 2.1204135
-2.5860958 1.7588911 1.4923062 4.151603 -1.0429271 0.027050564 3.0553055 -0.09693329

l2.bias f4 [8]
00000000: 2699 6d3e 1666 71bf 49d4 b2be 9500 c9be
00000010: c794 1a3e af2f f63e ee7a 973e ee08 813f
0.23202953 -0.94296396 -0.34927586 -0.39258257 0.15095817 0.48083255 0.29585975 1.008085

l3.weight f4 [45, 8]
00000000: 49e2 5ac0 b20b c2bf 409c edbb 585c 563f
00000010: 78d9 b8bf 3311 62c0 c7e8 64bf 9652 c3bf
00000020: 6b74 07bf 6ba1 68bf 00d0 a73c 92e9 acbf
00000030: eac1 6cbf 737b 18c0 e9cc b1bf 70bf 1ac0
00000040: 5525 68bf eb64 a8be b672 1d3e ab93 d83d
00000050: 2a0b 1cc0 ff1c acbf 14ca bcbf 82e1 a4c0
00000060: f518 7fc0 6437 8cc0 6e42 313e d824 903f
00000070: 6b6a 4ebf 2f06 9e3e 65c8 c1bf c8e2 6d3f
00000080: d55f 2e3f 1c14 25bf dbe8 893e 7a25 31c0
00000090: fc29 17c0 9552 ccbf e99b 3fbe ebfa 87c0
000000a0: 359d 05c0 2239 3fbf d107 58be 43d1 f1bf
000000b0: 37ee e7bf 7328 b8bf 3157 a63d bfb4 82c0
000000c0: d0b8 6e3f e193 f7bf d890 8cbe f312 98c0
000000d0: b396 d7bf 9a36 4bc0 dbc4 913d 4327 c93e
000000e0: da78 793f 281c 033f 6d9c 3bbe 2006 90c0
000000f0: 5192 9dc0 bf1c 3ec0 a6ac c1bf da87 33be
00000100: 3346 3ac0 42c1 82c0 79dd 6dbe 7c05 00c0
00000110: 0e2b a13e e986 0d40 472d f9bf 516e c4be
00000120: 7895 7cc0 52ef 0dc0 be73 573e 9492 833e
00000130: 49ff 4d3e 9438 01c0 1f20 03c0 b45d 77bf
00000140: a84d 823d 1de1 9bbf cf89 85be 3dcb 67c0
00000150: d1a8 98be ebe8 1d3d a34e c0bf c47a 75c0
00000160: 4f4d b63e 8995 09bf 2a0a 603e a0f7 82c0
00000170: a560 33c0 9641 1bc0 c5dd 6dbd 8584 c9bf
00000180: 72d8 73c0 e847 9bc0 b00e 23bd 09bb a1bf
00000190: b544 1e3f e11a dfbf 5d9b 223e e7ef 873f
000001a0: 5e35 02bf 67ce 2fc0 e346 833e 8d16 4fc0
000001b0: 9320 88bf b5fd 98bf e6d2 02c0 4d80 d53f
000001c0: 38ed 5ac0 ad7a 2cc0 6a2a 903e 5aa1 6fbf
000001d0: 1aab dcbe 5f64 e33f 5fcc 77bf f222 7bc0
000001e0: 90be 443e e481 d4be 42e9 413e 6430 8cc0
000001f0: 216d 33bf c316 b6bf f132 95c0 fff6 a93d
00000200: 26c5 29c0 e94f 0ec0 b90e 60be b0a0 62bf
00000210: 795e 41c0 1242 01c0 7dc4 ec3e 5af1 89be
00000220: 8f69 a4be 39b2 1cbf 40da c13c b170 eebf
00000230: 2026 a6c0 ce2d 4ec0 5219 6bbf 5cbd 483f
00000240: fc46 cfbe 0ed2 6abf 78ca b2bd 6217 45bf
00000250: da0c dbbf edb4 9dc0 2e51 abbe 9661 02c0
00000260: e70a 3dbe a208 32bf b283 81be ee45 3bc0
00000270: db0f e4bf d7a5 30c0 69aa d1bf fb89 fcbe
00000280: fe34 58bd ff67 85be 60ef b23c c05e 61bf
00000290: 46b4 63c0 1bae a9bf 8c4b 51c0 6f74 34bf
000002a0: ced0 a8bd 9fe9 44bf b0a7 f4bc b787 9bc0
000002b0: 45bf 52c0 1a62 393c 7a9c eabf bba2 693e
000002c0: 0b2b c4be ef2c e3be 9083 0d3d 3a7a 05bf
000002d0: d607 a5c0 2329 ffbe 2cff 32bf 8cbc 27c0
000002e0: 9893 d7be 70bf dbbe c46f e23d f7cc 05bf
000002f0: c23e 08c0 a333 41bf ed82 48c0 7e99 17c0
00000300: 4688 72c0 d17e 5fbf d1fb b33e 6ea2 debe
00000310: ce2a f6bf 46fb 28bf e3fa 5cbf 7727 6dc0
00000320: e936 3b3e 5c86 a5be 75db 973e a233 18c0
00000330: 4618 dfbf 96c9 28bd c443 8bc0 18bf d0bf
00000340: d7e4 8ec0 ba9f 20c0 d056 9b3c cada 61be
00000350: 011b 93bf 7329 863f 974f cbbf 507c d0bf
00000360: 3527 27c0 c82a 00bf facf 113e 82dd a3be
00000370: a2e7 84bf 577c 8ebf a1b5 37c0 eb25 30c0
00000380: ef7e e7bf 139e 8fbf 6397 893e 3847 23bf
00000390: 548a 23bf 1b9c b13d 4bf8 8fc0 43e9 bebf
000003a0: f16c 9cc0 3bcd 7ebf 55bb 38be 6912 b7be
000003b0: 4686 88bf beb6 2abf 7af7 6ec0 8348 febe
000003c0: 0935 48be 15ba 85bd 60fd 3bbc ac76 a63b
000003d0: 86f6 93c0 c4c8 84c0 9d58 6dbf 9718 babf
000003e0: b7d7 87bf 2ebd f8be 6889 d2bd 53b2 1abf
000003f0: 79ff 68bf 7dc4 1fc0 ab69 90c0 1517 26bf
-3.4200613 -1.5159819 -0.0072512925 0.83734655 -1.4441366 -3.5322998 -0.8941769 -1.5259578
-0.52912015 -0.90871304 0.020484924 -1.350878 -0.9248339 -2.3825347 -1.3890659 -2.4179344
-0.90681964 -0.32889494 0.1537579 0.105750404 -2.4381814 -1.3446349 -1.4749169 -5.152528
-3.9858983 -4.3817616 0.17310497 1.1261244 -0.8063113 0.30864093 -1.513928 0.92924166
0.6811498 -0.6448381 0.26935467 -2.7679124 -2.3619375 -1.5962702 -0.18711819 -4.2493796
-2.0877202 -0.7469655 -0.21096732 -1.8891987 -1.8119572 -1.4387344 0.08122099 -4.0845637
0.9325075 -1.9342004 -0.27454257 -4.752313 -1.6842865 -3.1752076 0.07117625 0.39287767
0.9745003 0.5121484 -0.1832139 -4.5007477 -4.924111 -2.9705045 -1.5130813 -0.17532292
-2.9105346 -4.086091 -0.23229016 -2.0003347 0.3147816 2.2113593 -1.9466943 -0.38365415
-3.9466228 -2.217732 0.21040246 0.25697768 0.20116915 -2.0190783 -2.0488355 -0.96627355
0.06362468 -1.2178074 -0.26081702 -3.6217797 -0.29816297 0.038552206 -1.5023998 -3.835618
0.35605857 -0.537438 0.21878877 -4.0927277 -2.8027737 -2.425878 -0.058072824 -1.5743567
-3.8100858 -4.8525276 -0.03980893 -1.2635204 0.6182359 -1.7430078 0.15879579 1.0620087
-0.5086268 -2.7469728 0.2564002 -3.2357514 -1.0634941 -1.1952425 -2.0441222 1.6679779
-3.4207287 -2.6949875 0.2815736 -0.9360558 -0.4309929 1.7765006 -0.9679622 -3.924008
0.19213319 -0.4150535 0.18936637 -4.380907 -0.7008839 -1.4225696 -4.6624684 0.08299064
-2.652658 -2.2236273 -0.21880616 -0.8852644 -3.0213912 -2.0196576 0.4624366 -0.2694195
-0.32111785 -0.61209446 0.02366364 -1.8628141 -5.192154 -3.2215457 -0.9183551 0.7841394
-0.40483844 -0.9172677 -0.08730024 -0.76988804 -1.7113297 -4.9283357 -0.33460373 -2.0372062
-0.1846119 -0.6954442 -0.25295788 -2.9261432 -1.7817339 -2.760122 -1.638013 -0.4932402
-0.052784912 -0.26055905 0.021842659 -0.880352 -3.557878 -1.3256258 -3.270236 -0.70490164
-0.08242951 -0.7691898 -0.029865116 -4.8603168 -3.2929242 0.011314893 -1.8329003 0.22815983
-0.3831409 -0.4437022 0.034549296 -0.5213963 -5.1572065 -0.49836072 -0.6992061 -2.620883
-0.42104793 -0.42919493 0.11056474 -0.52265877 -2.1288304 -0.75469416 -3.132991 -2.3687434
-3.7895675 -0.8730288 0.35153058 -0.434833 -1.9231813 -0.6600841 -0.8632032 -3.7055337
0.18282665 -0.3232907 0.2965962 -2.3781514 -1.7429283 -0.041207872 -4.352022 -1.6308317
-4.4654346 -2.509749 0.018962294 -0.22056118 -1.1492616 1.0481399 -1.5883664 -1.6287937
-2.611768 -0.5006528 0.14239493 -0.32004935 -1.0383189 -1.1131696 -2.8704607 -2.7523143
-1.8085612 -1.1220115 0.2687331 -0.63780546 -0.63882947 0.08672353 -4.499059 -1.4914936
-4.8882985 -0.99531907 -0.18040211 -0.35756233 -1.0665977 -0.6668509 -3.7338548 -0.49664697
-0.19551481 -0.06529633 -0.0114739835 0.0050800648 -4.623843 -4.1495075 -0.9271334 -1.4538754
-1.0612706 -0.48581833 -0.102801144 -0.6042835 -0.9101482 -2.4963677 -4.512899 -0.6487897

l3.bias f4 [45]
00000000: 54c2 e7bf 9300 40bf 69e3 42bf cccd 92bf
00000010: baa5 5cbf ba5e 76c0 1618 4ec0 5af3 b93c
00000020: c82b a8bf fb39 52bf 623d 9fbf 2c51 c0bf
00000030: ae4c 923d e25f 08be 1bc7 edbf 0416 9abe
00000040: 3b5f 2cc0 91b4 ab3e 5f46 1ac0 0df4 4dbf
00000050: 64bf a5bf 3788 4ebf 3682 b1bf 2640 dbbf
00000060: dfea 32bf 22ef 7cbf a77d 7abc 3d6a d7bf
00000070: 2017 87bf f86a 8ebf a16a b5be f517 a9bf
00000080: 5c6a 4a3d b98e 88bf 52e4 3ebd aad4 15c0
00000090: 1916 32bf a25f 82bf e932 773e ec05 11be
000000a0: e655 a43e 86a8 6ebe aa09 58bf 6131 05c0
000000b0: 90d2 2cbd
-1.8106179 -0.75000876 -0.7612825 -1.1469054 -0.8619038 -3.8495317 -3.22022 0.022699047
-1.3138361 -0.8211972 -1.2440608 -1.5024772 0.07143532 -0.13317826 -1.8576387 -0.30094922
-2.6933124 0.335362 -2.410545 -0.80450517 -1.2949033 -0.806766 -1.3867862 -1.7128952
-0.69889635 -0.9880239 -0.015288747 -1.6829296 -1.0553932 -1.1126394 -0.35432914 -1.3210436
0.04941784 -1.0668555 -0.046604462 -2.341105 -0.6956497 -1.0185435 0.24140514 -0.14162415
0.32096785 -0.23306474 -0.84389746 -2.0811388 -0.042192996
