data.pth (torch, 25770 bytes, 6 tensors)

l1.weight f4 [8, 448]
00000000: 7749 d73e 2956 933f ffdb 543f 9a8a c9be
00000010: 248d e63e 9918 08be 55d8 ae3e 7ea8 8f3f
00000020: 3275 023f 773e 383e a673 1abd 4f57 dc3e
00000030: 9cac 853e 7ec9 243e ee96 5f3f 928b 903e
00000040: 2bd3 9e3f 8edc 943e 5b72 6c3e 3258 23bd
00000050: 787a 34be 9b43 813f 3927 4fbd 2cb6 1d3f
00000060: 8fea ce3f 7a2a 5b3f 4137 003f d165 21be
00000070: ef0c 4a3f 2887 073f caea 4e3f 6dc1 893f
00000080: 4040 633f 9f1f c33d 00bc f33f 017f d63e
00000090: d218 24be dbdb 1c3d dbd3 b2be 7ff1 803e
000000a0: 5114 bcbe a600 873f b196 3cbd 10ef 793f
000000b0: 3433 123e 07c2 323f a424 d43f fe39 8e3f
000000c0: 375d 933f a102 8a3f 7aa3 c23f a403 1d40
000000d0: 73a6 9a3f 9b55 59bd a615 373f 4a2a 9e3f
000000e0: 20a8 0d3e 7de9 2040 07da 4140 2310 8b3f
000000f0: 31e2 5abe 86df 913f 803a 1d3f ff8d 7bbe
00000100: 863d 8d3f 2688 8bbd 4f0a 563f 7a52 f53d
00000110: cc5b ec3f 33da 423f 9659 293f dcc1 2c3f
00000120: 2bb1 f03e 1c23 6f3f d2ee 7a3e b4f3 9e3f
00000130: 741c 753e a3dd 8e3f 85fe a3bd 44ba 5b3f
00000140: e540 b73f 44bd 54bf ef82 66be f39e 223e
00000150: 1af2 783e 57db 06bf 7b90 933f c8f4 8f3f
00000160: d276 933f bbd6 513f 45aa d13f bec5 603f
00000170: a081 b73e 2197 753f 5cb5 d03f f42f 783d
00000180: 656c 2d3e 141f 1c3f a3af b3be b858 d13c
00000190: 98e6 293f e88e 723f 4aa7 bfbd 88de ef3f
000001a0: ccaa ec3d 1c2f b63e b801 233f 5273 dc3f
000001b0: 606f 853f 12fd 663e 1d9a d43e cc6f 6f3f
000001c0: d3b7 89bd 2bce bf3f eca6 df3e a951 d43f
000001d0: 4bf1 4e3f 40c4 4e3f 66be 643e 584d cc3f
000001e0: 891b 9e3f 5d69 08be 1f67 7c3e 6638 0640
000001f0: c04c 793e 5cf6 ee3f b061 a73d 18c7 b9be
00000200: 3280 3d3f b235 993f d946 233f 2a04 c63d
00000210: 42aa 813f dc4c 143f 8da0 1d3e f3d2 e6be
00000220: ae75 963f 7e50 4c3f 1447 cc3f 3727 023f
00000230: 124c d03d 0482 a43e af29 b53d 58cd 5bbe
00000240: ab77 913f ccd8 b73e 28da 943f fb9c 343f
00000250: b2fa 013e 1cce d6be 699d 6d3e 7630 04bd
00000260: a8bf a13e eaee 993e 0c18 2ebc d051 403e
00000270: bffe 543f 9d4d 46bd ab8a 2e3f 56a6 2f3f
00000280: eada 5c3f 2832 ef3e 889e 653f b040 55be
00000290: 2a59 9e3f c40d 833f 58e0 753d a03f 913f
000002a0: d2b3 963f d0fd b23e f414 3e3f 326b 3b3f
000002b0: d841 613f 8c65 913e b9f2 043f 6930 58be
000002c0: 13a6 523f cfc8 fc3d c331 a13f 9d06 df3f
000002d0: 035a 933f 01fb 963f 7873 ee3d 1c38 193e
000002e0: 9102 9fbe ee71 d9bd 213d b73f 8b64 e23e
000002f0: f638 3a3f 9bd5 4d3f 732d 8d3f ea40 b33f
00000300: 6b10 ad3e 86e5 b23e 91cf e63f 9c5d ab3f
00000310: 58f1 773f daa7 933f 2c08 13bf 861b 1140
00000320: ffae 8c3f bcc8 ec3f 0d55 bf3e e853 ca3e
00000330: 6c4b 463e f778 9c3e 493e cf3e 2edd 213e
00000340: bd06 1f40 c5ec 06be 1a12 9b3e 73e9 c7bd
00000350: c9a5 4e3f a722 9a3f ab4a b23f e121 ad3f
00000360: dd9a 60bb 1c14 9d3f a7eb b73f 9937 d93f
00000370: da0c 4e3d 760b ea3e 3c6e abbe c44a 6b3f
00000380: 3383 0d3f bacf 7bbe 7399 ea3f 6ae5 533f
00000390: 9d63 133d cf0a 3d3e c588 b33f fef0 563f
000003a0: 7ed8 c13e 3b66 0b3f 5b4c cb3e b4ee 8d3f
000003b0: e52b 1c3f c3e5 29be d282 27be 8855 853f
000003c0: d6a1 20bd 12d6 a63e a10a b23e 7191 10bd
000003d0: 92a6 853e 2b9c 003f d653 4f3f bba0 ec3f
000003e0: dc2d a73c 1bc7 a9bc 3ded 8b3f 5e83 0d3f
000003f0: 827b dc3f f95c 393f cfdf a3be 5c88 93be
0.42048237 1.1510669 0.8314819 -0.39363557 0.45029557 -0.13290633 0.34149423 1.1223295
0.50960076 0.17992578 -0.037707947 0.4303536 0.26108253 0.16092488 0.87339675 0.28231484
1.2408193 0.2907452 0.23090498 -0.03987903 -0.17624843 1.0098757 -0.050574515 0.616061
1.6165332 0.8561169 0.5008431 -0.15761496 0.78925985 0.5294061 0.8082701 1.0762154
0.8876991 0.095275156 1.9041748 0.4189377 -0.16025093 0.038295608 -0.34927258 0.25184247
-0.3673425 1.0547073 -0.046042148 0.97630405 0.14277345 0.6982731 1.6573682 1.1111448
1.1512822 1.0782052 1.5206139 2.4533472 1.2082046 -0.053060155 0.7151741 1.2356656
0.13833666 2.514251 3.0289323 1.08643 -0.21375348 1.1396339 0.6141739 -0.24565886
1.10344 -0.06813078 0.8360948 0.11978622 1.8465514 0.76114196 0.6615232 0.67483306
0.47010168 0.9341295 0.24505165 1.2418122 0.23936635 1.1161388 -0.0800753 0.85831094
1.4316679 -0.83101296 -0.22510885 0.15880947 0.24311104 -0.52678436 1.1528467 1.1246576
1.1520636 0.8196828 1.6380087 0.8780173 0.35841084 0.9593373 1.6305346 0.060592607
0.1693588 0.6098492 -0.35094938 0.025555 0.66367483 0.9474931 -0.0935808 1.8739786
0.115560144 0.35582817 0.636745 1.7222693 1.0424614 0.22557476 0.4152383 0.93529963
-0.06724515 1.4984792 0.4368204 1.6587421 0.80836934 0.80768204 0.22338256 1.5961103
1.2352153 -0.13321443 0.24648713 2.0971923 0.24345684 1.8668933 0.08172929 -0.3628471
0.74023736 1.1969512 0.6377998 0.09668763 1.0130084 0.5792978 0.15393277 -0.45082816
1.1754663 0.7981032 1.5959191 0.5084109 0.10170759 0.32130444 0.08845841 -0.21465051
1.1364645 0.3590759 1.1629076 0.70552033 0.12693289 -0.41954124 0.23204578 -0.03227278
0.31591535 0.3006509 -0.01062585 0.18781209 0.8320121 -0.04841386 0.6818034 0.68613183
0.86271536 0.46717954 0.89695024 -0.20825458 1.2370961 1.0238576 0.060028404 1.1347542
1.1773627 0.3495927 0.7425072 0.7321044 0.87991095 0.28397787 0.51932865 -0.21112217
0.8228466 0.12342989 1.2593311 1.7423893 1.1511844 1.179535 0.11643118 0.1496281
-0.31056646 -0.106174335 1.431553 0.44217333 0.72743165 0.8040406 1.1029495 1.4004185
0.33801588 0.34940737 1.8032094 1.3387942 0.96852636 1.1535599 -0.57434344 2.267305
1.0990905 1.8498759 0.37369576 0.3951714 0.19364709 0.3056104 0.40477207 0.1580703
2.4847863 -0.13176258 0.30287248 -0.09761324 0.8072172 1.2041825 1.3929037 1.3525964
-0.0034271993 1.2271762 1.436879 1.6970092 0.050305225 0.4571187 -0.3348254 0.9191096
0.5527832 -0.2459096 1.8328079 0.82771933 0.03598367 0.18461154 1.4026114 0.83961475
0.37860483 0.54452866 0.39706692 1.1088471 0.6100448 -0.16591553 -0.16358498 1.0416727
-0.03921684 0.32585198 0.34773734 -0.035294954 0.26103646 0.50238293 0.809873 1.8486551
0.02040761 -0.020724824 1.0931774 0.55278575 1.7225192 0.7240749 -0.3200669 -0.2881497

l1.bias f4 [8]
00000000: 977d e53f 6119 ca3f d717 0140 0b3c 1b40
00000010: 6f81 0240 4ed1 933f 448f 1040 4378 433f
1.7928952 1.5788995 2.01708 2.4255397 2.03915 1.154825 2.2587442 0.7635538

l2.weight f4 [8, 8]
00000000: d0fa e53c 7e3b ebbf 784b 183f 2760 803f
00000010: f042 0840 0d5b 3340 2dfd 0040 a030 0f40
00000020: d55f 733f 1097 2c40 125f 403f 1a92 1abf
00000030: 6e38 3640 2669 81bf 3534 6040 fdf9 173f
00000040: 2945 3a40 520d 073f 3bbb 3e40 2975 5e3f
00000050: 5843 b5bf a12f ddbf 8aee 1c40 4b59 f33f
00000060: 4912 a53e e792 c7bd 36b0 2e40 50aa 33be
00000070: 5a20 9f3f 8f00 7a40 f97b 8d3f b9bf 623f
00000080: 4d3c 34bf f8d1 3c40 18f8 5140 90f9 9b3f
00000090: 3284 5440 e4ed f73e ea6d 633e 81bd f4bf
000000a0: ff6d 4b40 8c21 1240 5dae 4a3e 18a3 953f
000000b0: 65d4 3340 0d01 1340 3b7b 91bf b8d9 5340
000000c0: 767f 5c3f ca24 c5bf 2ad3 1f40 b4f3 943f
000000d0: d475 2740 159a 4fbf ea1f e53f 4700 1340
000000e0: e7dd 0840 a331 433f 3f67 c73d 1b2a 8e40
000000f0: 3f1d d73d f543 793f 94f2 3140 4dd8 1abf
0.028073698 -1.837753 0.59490156 1.0029343 2.1290855 2.8024323 2.0154526 2.2373428
0.95068103 2.6967201 0.75145066 -0.60379183 2.8471942 -1.0110214 3.5031865 0.59365827
2.9104712 0.527547 2.9801776 0.8689752 -1.4161177 -1.728016 2.4520593 1.9011625
0.32240513 -0.09744816 2.729505 -0.17545438 1.2431748 3.906284 1.1053458 0.88573796
-0.7040451 2.9503155 3.2807674 1.2185535 3.3205686 0.48423684 0.22209898 -1.9120332
3.1785886 2.2832975 0.19793077 1.1690397 2.8098385 2.2969391 -1.1365732 3.3101635
0.8613199 -1.5401852 2.4972634 1.1636872 2.6165667 -0.81094486 1.7900364 2.296892
2.1385438 0.76247615 0.097364895 4.44264 0.10503625 0.9736932 2.7804308 -0.604863

l2.bias f4 [8]
00000000: b93a 4e3d f2c3 143f 9b4e 9e3e f193 5b3f
00000010: e3d2 cb3f 7c9c 9f3d b074 0cbf f31a 1040
0.05034897 0.5811149 0.30919346 0.85772616 1.5923733 0.07793519 -0.5486555 2.2516448

l3.weight f4 [29, 8]
00000000: 0133 adbf 6cf8 253f e672 1a3f 0469 77bf
00000010: bf64 823e c7a5 8fc0 3a76 883d fe69 1ebf
00000020: d6b5 253e e468 2fc0 7d7c a53e 29ea 88bf
00000030: 4e91 00c0 62e3 12be 771b 023f 2c1d 5dbf
00000040: 973a 80bf 1f6f 83bf 382f 7e3f 1410 debf
00000050: 00b9 b4bf 13c6 0ec0 1d4a 613e ffe6 ee3e
00000060: 8576 2a3f 5333 36c0 ca8f e3bf f172 873f
00000070: fc7a 773e 2bfa 8b3d 37ac 9fbf d009 16c0
00000080: 0b97 f0bf a3ad d9be bb86 e4be b37c e6bd
00000090: 3d97 133f f796 c43d d1a1 4bbf 6563 41c0
000000a0: c382 34bf 812c ab3d 9e5b 343e 932e e2bf
000000b0: 08dc 7ebf 78df 1cbf dedd cb3d 7ba9 f3bf
000000c0: 2486 0fbf 34ad 863e aaee adbe dae8 74c0
000000d0: 4ff9 48bf 3dcf 03bf 15a8 20be f266 55be
000000e0: 639d 9ebf 11be 1c3f fcb6 dabf ef70 d4bf
000000f0: d717 3dbe 753a 613f 8f72 f3bf 4e57 b3bf
00000100: d22a 6ebe 5506 f4be d49c a0bf b542 aabf
00000110: 6b00 a8be d4ed c8bf af64 603e 9b0b 3bbf
00000120: 3254 aebf 37e8 21c0 3d7b ea3e d129 18c0
00000130: 1f35 3cbf 1b48 ad3e e59a 8abf 8047 523f
00000140: 3337 7a3f 653b 22c0 4080 28c0 3e69 07bf
00000150: d901 b7bf 2590 ae3e 3305 1c3f 83ed a2bf
00000160: 9ca1 8ebe 3642 b1bf 898e 84bf 7e40 2dbf
00000170: 2fca 4bbf 0fcb 3b3e b392 c2be a752 b5bf
00000180: 0915 bc3e 5d85 d4bf 7e0f 63be 3819 afbf
00000190: 788b 44c0 7073 40be 9f68 1cbf 82e4 193f
000001a0: 44f2 96be 7595 2cc0 d3ff 13be 64d5 32bf
000001b0: 33c5 efbf a7ff ba3f 3637 adbf c464 29bf
000001c0: bd4f a1bf 4ae2 6d3f 242f 06bf 2c31 3cbf
000001d0: 0e08 db3e e582 edbf 9e45 9ebe 4b5d 15c0
000001e0: 4335 3f3e b539 b6be b2b8 89bf 6903 753e
000001f0: e7d5 c9be a158 b2bf 2915 ab3d 4edf 35c0
00000200: 89b5 bebe 1658 3ac0 95c0 cc3e 08ca e1bb
00000210: aa2d cfbe 8b3b dabf f5c8 213e 67f3 5abf
00000220: 929c 32bf 6567 23bf b178 6e3f 7b4a 80c0
00000230: fb0c 5ac0 d838 b03d c032 223f 21c6 ff3e
00000240: af81 73bf 6349 eabf 6b9d 863e 3f46 3dc0
00000250: 6141 8f3f 86cb 3ac0 a95f a1bf c031 f93f
00000260: c194 fd3e f2f0 41c0 6a34 30bf 0ac0 3e3f
00000270: 28c6 fcbf e027 a23e fe8d 45c0 2b46 473f
00000280: 5624 bcbe f203 7dbe dc7a 6cc0 6d2b 603d
00000290: 0b74 903e d803 59bf 35c6 edbe b511 89bf
000002a0: f23c 31c0 9648 1cbe 0681 48c0 e6a7 fdbf
000002b0: c80e 813f 62e6 5a3e 01b5 0fc0 0295 b73f
000002c0: 478e 6ebe 1001 4bbf ba8d 30bf eb97 043e
000002d0: 230f bcbe 320a 00c0 9077 f6bf 5fc4 c23c
000002e0: 28db 1b3f e0cf c9bf 4dd9 48bf 6245 97bc
000002f0: e4fe f4bf 6a03 92bf 3a90 e2be 86db e0be
00000300: 4746 e2bf d17c f2bd 476a 6c3e b95a c2be
00000310: fc6f 56bf d811 c9be 00ee 18c0 7b63 08bf
00000320: 2809 943e d167 4bc0 9997 0ec0 6a6d 79be
00000330: 3e88 c9bd 5e1e 12bf 1ed3 29bf 63de d03e
00000340: 1d5b 01bf 6f54 e7bf e08a 83bf ad21 e03d
00000350: 55ee e63e 5150 f63e 4357 58c0 7c99 18bf
00000360: 82d1 dfbf 0657 e9bf 9f8e b2be 5a57 50bf
00000370: 4486 133f e10b 13bf c9ed 55bf 646b 04bf
00000380: 85c5 65c0 0940 8a3f 65f7 c83e 4eb3 1ac0
00000390: 659d 803f bfa7 aabf 5fe9 0ac0 e2d6 793e
-1.353119 0.64832187 0.6033157 -0.96644616 0.25467488 -4.4889865 0.06663175 -0.6188048
0.16182646 -2.740777 0.3232154 -1.069646 -2.0088687 -0.14344552 0.5082316 -0.8637264
-1.001788 -1.0268286 0.992908 -1.7348657 -1.4118958 -2.2308395 0.22000928 0.4666061
0.66587096 -2.8468826 -1.7778256 1.0581952 0.24168009 0.06834825 -1.2474431 -2.344349
-1.8796095 -0.42515287 -0.4463404 -0.11254253 0.57652646 0.09599107 -0.7954379 -3.0216916
-0.70512027 0.08358098 0.17613074 -1.7670463 -0.9955449 -0.61278486 0.09954427 -1.9036096
-0.5606406 0.26304018 -0.3397115 -3.8267121 -0.78505415 -0.51488096 -0.15689118 -0.20840052
-1.2391781 0.6122752 -1.7087092 -1.6596965 -0.18466125 0.87979823 -1.9019336 -1.4011018
-0.23258522 -0.4766108 -1.254786 -1.3301607 -0.3281282 -1.5697579 0.21913408 -0.73064584
-1.3619444 -2.5297983 0.45797148 -2.3775523 -0.73518556 0.33844075 -1.082852 0.8214035
0.9774048 -2.5348752 -2.6328278 -0.5289496 -1.4297439 0.3409435 0.60945433 -1.2728733
-0.27857673 -1.3848331 -1.0355998 -0.6767653 -0.7960538 0.1833918 -0.38002548 -1.4165848
0.367348 -1.6603199 -0.22173879 -1.3679571 -3.0710125 -0.18794036 -0.6109714 0.601143
-0.2948171 -2.6966221 -0.14453058 -0.6985686 -1.8732055 1.4609269 -1.3532474 -0.6616938
-1.2602459 0.92923415 -0.5241568 -0.7351253 0.42779583 -1.8555571 -0.3091249 -2.3338192
0.18672661 -0.35590902 -1.075949 0.23927082 -0.39421007 -1.3933297 0.08353645 -2.8417544
-0.37247875 -2.9116263 0.39990678 -0.006890539 -0.40464526 -1.7049421 0.15799315 -0.8552765
-0.6977016 -0.6382964 0.9315291 -4.009092 -3.4070423 0.08604592 0.6335869 0.49955848
-0.95119756 -1.8303646 0.26291975 -2.9574125 1.1191827 -2.918672 -1.2607318 1.9468307
0.49527553 -3.0303311 -0.6882998 0.7451178 -1.9747972 0.31671047 -3.0867915 0.7784144
-0.36746472 -0.24708536 -3.6949987 0.054728914 0.28213534 -0.8477149 -0.46440282 -1.0708529
-2.7693448 -0.15262064 -3.132875 -1.9816864 1.0082636 0.21376947 -2.2454226 1.4342349
-0.23296462 -0.79298496 -0.6896626 0.12948577 -0.36730298 -2.0006223 -1.9255238 0.023775278
0.6088128 -1.5766563 -0.78456575 -0.018465701 -1.9140286 -1.1407292 -0.4425066 -0.43917483
-1.7677697 -0.11840213 0.23087417 -0.3795984 -0.83764625 -0.39271426 -2.3895264 -0.53276795
0.28913236 -3.1782115 -2.2280028 -0.24358144 -0.09840439 -0.57077587 -0.66337764 0.40794668
-0.5052965 -1.8072642 -1.0276756 0.10943923 0.45103708 0.48108152 -3.380326 -0.596092
-1.7485812 -1.8229682 -0.34874436 -0.8138329 0.5762675 -0.5744 -0.83565956 -0.51726365
-3.5901806 1.0800792 0.39251247 -2.417194 1.0048033 -1.3332442 -2.1704938 0.24398378

l3.bias f4 [29]
00000000: bb19 febe 043a 74bf e75e 69be ef98 053e
00000010: a9a6 46bd 80a4 2abf 95cc 18bf 770d 32bc
00000020: 36c0 37bf 9e71 b83e 9e77 0cbe 2c21 09bf
00000030: 108b 903d b507 7b3e af1e 09bf 8c94 86be
00000040: c20f 35be a0dd 623e ac86 7d3e a5ec 233f
00000050: 32c1 fdbd 7a15 553f f177 9f3e 9ea6 82bd
00000060: b81b be3c afed 2a3e 0793 64be 5439 e9be
00000070: 762d 613f
-0.49629006 -0.95401025 -0.22790109 0.13046621 -0.048498783 -0.6665726 -0.5968717 -0.010867468
-0.71777666 0.36024183 -0.13717505 -0.5356624 0.07057774 0.24514659 -0.53562444 -0.26285207
-0.17681792 0.22154856 0.24758404 0.64032966 -0.12390365 0.83235896 0.31146196 -0.06379436
0.023206577 0.16692232 -0.22321711 -0.4555155 0.8795999
