data.pth (torch, 13290 bytes, 6 tensors)

l1.weight f4 [8, 203]
000000 50 85 5e 3e d9 4a 5b be 8a c1 2e 3f ca 94 1c 3f
       0.21730542 -0.21415271 0.6826407 0.61164534
000010 64 44 af be 7a 6e bb be cb 3d 6b 3f 22 15 4a 3e
       -0.34231865 -0.36607724 0.91891164 0.19734624
000020 f0 cd 96 3e 7f bb 62 3e de 7f 9c be 72 50 10 be
       0.29453993 0.22141837 -0.30566305 -0.14093187
000030 8d 09 f3 3c d9 99 43 3d 0d c8 98 3e 75 89 22 3f
       0.02966764 0.047754142 0.29840127 0.6349099
000040 c6 dd a5 be 0d c2 05 3e f5 05 28 bd 56 cb fc 3e
       -0.32395762 0.13062306 -0.041021306 0.49373883
000050 d3 c6 61 3e f8 11 72 3f c3 65 65 3f 32 3e 16 be
       0.22048502 0.9455867 0.896084 -0.14672163
000060 dc 65 97 be 5b ab 59 bf 30 51 64 bd 72 73 03 bf
       -0.295699 -0.8502709 -0.05574149 -0.5134803
000070 04 58 5a bf c6 5b 61 3f 03 5e 61 3f a5 06 5c 3f
       -0.8529055 0.8803066 0.88034075 0.8594764
000080 19 c6 da be e8 7a ca be b1 c5 30 bf a8 15 80 be
       -0.42729262 -0.39546895 -0.69051653 -0.25016522
000090 9f 1b f0 be e4 6e f1 3d 7a b9 2b bf 0a cf 1c bf
       -0.46896073 0.11788729 -0.6707989 -0.61253417
0000a0 52 7c 33 bf 65 46 66 bf 88 a4 37 bf 12 d9 c1 3e
       -0.7011157 -0.89951164 -0.7173543 0.37860924
0000b0 94 c2 d8 3d 4e 35 c6 be 4a fa 48 be 51 fd 6a 3e
       0.10583988 -0.38712543 -0.19626728 0.22948195
0000c0 03 06 a6 bd 9e 9e 9e be 32 f8 2f bf eb 00 93 3e
       -0.081066154 -0.3098039 -0.6873809 0.28711638
0000d0 78 7f 7e be b6 e7 b8 3e 66 03 1a 3f ce 62 45 3f
       -0.24853313 0.3611428 0.60161436 0.7710389
0000e0 9a e2 29 3f e4 ca 0f be da 51 c1 bd ad 00 36 3f
       0.6636139 -0.1404224 -0.0943944 0.7109478
0000f0 58 31 27 3f bd 3b 49 3e 4c 71 86 3f 2c 9f 34 3f
       0.6530967 0.19651695 1.0503325 0.70555377
000100 2b bc 35 3f 8a f7 3b bf a7 59 9c 3e 57 5d 2b 3f
       0.70990247 -0.7342459 0.3053715 0.669393
000110 62 20 31 3f c3 e0 17 3f 1f 5c 1e 3f a7 ba f5 be
       0.6919004 0.59327334 0.61859316 -0.47993967
000120 a5 aa 12 3f d2 52 82 3f bd e2 b8 3e 84 08 09 3f
       0.5729163 1.0181525 0.36110488 0.5352862
000130 02 44 02 bf 15 58 33 3f 7a fe 1d 3f c1 c8 53 be
       -0.5088502 0.7005628 0.61716425 -0.2068205
000140 f6 89 e2 3d 74 09 c4 be 4a 25 40 bf a9 ac 2c 3f
       0.1106147 -0.38288462 -0.750569 0.6745096
000150 d5 62 7a 3e 66 28 d0 3e 72 29 fd 3e 24 e2 d8 3e
       0.24451764 0.40655822 0.49445683 0.42360032
000160 45 ed 1d 3e 5f 8b 23 3f 61 b9 30 3f 96 e2 04 bf
       0.15422542 0.6388454 0.69032866 -0.5190824
000170 9c ae 43 bf 29 60 0a 3f 0a 3c 98 be 39 77 2e bd
       -0.7643831 0.5405298 -0.29733306 -0.04259417
000180 51 c3 17 3f 30 59 53 3e 8b ce b4 be 54 e0 30 3f
       0.59282404 0.20639491 -0.3531383 0.690923
000190 e6 10 5b 3f 7f 90 a0 be f1 5c 4b 3f b4 e0 09 3f
       0.8557266 -0.31360242 0.7943869 0.53858495
0001a0 27 e8 90 bd f6 07 e6 3d 78 d1 1d 3f df 6e 81 3f
       -0.070755295 0.11231987 0.6164775 1.011196
0001b0 35 09 83 3f 7b 35 53 3d f0 2d 4d be 27 5c 17 bf
       1.0237185 0.051564675 -0.20037055 -0.5912499
0001c0 09 a7 68 bd e8 f3 9e be 36 a4 2f bd 9a f8 39 3d
       -0.056799922 -0.3104546 -0.042881213 0.0454031
0001d0 0e a9 3e 3f a5 f3 82 be 9c ce 0c bf 1a be 11 bf
       0.74476707 -0.2557651 -0.5500276 -0.56930697
0001e0 7a 61 1d bf 47 5a c8 3e aa 19 e3 3e 39 91 c4 3e
       -0.6147686 0.39131376 0.44355518 0.38392046
0001f0 c3 ec fe 3e b9 f0 2d 3f 1a 50 91 3e d4 0a 15 3f
       0.4979001 0.6794544 0.28381425 0.5821965
000200 74 92 cf bc d5 ed 05 3e 30 4d c9 bc 4d ce 89 bd
       -0.025338389 0.13079007 -0.024572939 -0.06728802
000210 aa 03 80 3d 20 1f 21 3e 3f 49 b7 3d a9 96 4e be
       0.06250699 0.1573453 0.089495175 -0.2017466
000220 32 0e f6 3c 3a e0 82 bf 18 f4 3a bd c3 07 97 3d
       0.030036066 -1.0224679 -0.045642942 0.07374527
000230 25 6d ba be b5 0d aa be 50 6c f7 bd 9c 74 73 3e
       -0.36411396 -0.33213583 -0.12081206 0.23774952
000240 73 e4 6f bd a7 43 c6 be 1c 90 b3 bd c5 1a 05 bf
       -0.058567476 -0.3872349 -0.08767721 -0.5199397
000250 3a fc cc be 1d 96 94 be 01 90 0f bf a1 6b 2c be
       -0.40036184 -0.29020777 -0.5607911 -0.16837932
000260 cb 94 87 bf 06 1e 70 3e c1 f0 2f 3e a0 f0 a1 be
       -1.0592283 0.23448953 0.17181684 -0.31628895
000270 30 ee e7 be c2 f9 40 3f 31 1d 0e 3f bc 05 25 bf
       -0.4529891 0.753811 0.5551329 -0.64461875
000280 62 7a a8 be 80 90 40 3e 92 89 ea 3e c4 14 c5 bd
       -0.3290587 0.18805122 0.45808083 -0.09623101
000290 f6 66 bc bc 86 d2 01 be 88 eb 34 3f 30 69 5d bd
       -0.022998314 -0.12677965 0.7067189 -0.054055393
0002a0 57 68 a8 3e 4d 2d 92 3e e8 94 40 3e e5 26 45 be
       0.32892105 0.28550187 0.18806803 -0.19253118
0002b0 58 c1 13 be c9 36 9a bd 47 14 ed 3e 3c da 1d 3f
       -0.14429224 -0.07529981 0.46304533 0.61661124
0002c0 0f aa 14 3f 7e 5b 1f 3f 18 b9 8b bd 52 c7 b8 3d
       0.5807199 0.6224898 -0.06822413 0.09022392
0002d0 a8 41 9b be dc 6a e0 3e 4b fb 11 3f 5d 5a 2f 3f
       -0.3032353 0.43831527 0.5702407 0.6849726
0002e0 9d 3c d2 3e 63 e7 3a 3f e8 99 43 3e 2e 3e 32 be
       0.4106187 0.7300932 0.1910168 -0.17406532
0002f0 63 95 33 3f df 03 84 3e ce 61 18 be 74 7c d8 3e
       0.7014982 0.25784203 -0.1488106 0.4228245
000300 a4 e3 0d 3f 16 db 98 be 42 59 b7 3e c3 83 0f bf
       0.5542548 -0.2985465 0.35810286 -0.5606043
000310 d2 c3 22 3f 15 60 ae 3c 01 a0 33 3e 14 87 e8 3e
       0.6358005 0.02128605 0.17541505 0.45415556
000320 d8 8e 25 3f 8b 4c 63 3e 20 84 6b bd d9 cc bd be
       0.6467109 0.22197168 -0.05749905 -0.3707035
000330 ff 34 48 be b4 29 51 be 42 cd ad bd 77 b1 f3 be
       -0.19551466 -0.20426065 -0.084864154 -0.47596332
000340 7d 85 16 3f 6b 7a 8d be 1c 76 f1 3e c7 2c 26 bf
       0.58797437 -0.2763246 0.47160423 -0.64912075
000350 b2 92 14 bf f6 c0 13 3f b4 05 1a 3f 16 a2 4a bf
       -0.5803634 0.5771631 0.6016495 -0.79153574
000360 9d 07 b3 be 3b 58 e5 be 13 55 82 3e dc bf f7 3e
       -0.34966746 -0.44793877 0.2545553 0.48388565
000370 57 4e a6 3e 39 c1 26 3f 55 32 52 bf 65 26 a3 be
       0.32481644 0.65138584 -0.8210805 -0.3186523
000380 a7 81 6f be 71 51 68 bf 31 6c 30 bf 53 0f 83 be
       -0.23389302 -0.9074927 -0.68915087 -0.2559763
000390 d8 68 d2 be 4f a9 ea bb e3 7f b2 3e ae a6 16 bf
       -0.41095614 -0.0071612964 0.34863195 -0.58848083
0003a0 8a aa 07 3f 1f c0 96 be 6c 2f 06 bf b7 a1 84 3f
       0.52994597 -0.29443452 -0.5241611 1.0361851
0003b0 db 61 ea 3e 75 90 82 3f 3b 6e d0 3d ab bb 7f 3f
       0.45777783 1.0200335 0.10177275 0.99895734
0003c0 a5 0c 12 3f c0 6d 40 3f 97 8d a9 be 39 54 48 3f
       0.57050544 0.75167465 -0.33115837 0.78253514
0003d0 f8 51 84 3f fd de 5a 3f 44 69 d0 bd 28 66 61 3e
       1.0337515 0.85496503 -0.10176328 0.22011626
0003e0 fe d0 0b 3f f0 87 dc 3e 5f 2b 3e 3e d7 f1 f7 3e
       0.5461577 0.43072462 0.18571232 0.48426697
0003f0 11 40 a2 3e 61 11 92 3f 77 01 5d be 50 82 96 be
       0.31689504 1.1411554 -0.2158259 -0.29396296

l1.bias f4 [8]
000000 40 b1 c5 3f d0 91 91 3f 5f 91 2a 3f 4b 02 83 3f
       1.5444717 1.1372623 0.6662807 1.0235075
000010 d1 72 37 3f 47 e9 20 3f 8b 4b 87 3f 49 70 a4 3f
       0.7165957 0.6285595 1.0569929 1.2846767

l2.weight f4 [8, 8]
000000 09 a5 da 3f 94 4e f3 be 5b 5d ef be ef 45 97 3f
       1.7081615 -0.47520888 -0.46750912 1.1818217
000010 08 a0 da bd 95 dd b9 bf 85 6c c4 3e 83 e5 16 40
       -0.10675055 -1.4520746 0.38364044 2.3577583
000020 cc 57 f2 3e ea 96 86 3f f3 e3 06 c0 32 a1 e9 3f
       0.4733261 1.0514805 -2.107663 1.8252318
000030 72 8e ff bf fc 02 22 3f e9 54 1a 3d 2b e9 06 3f
       -1.9965346 0.63285804 0.037678633 0.52699536
000040 b0 45 07 3c 39 76 83 bd 6d 55 6f 3d 79 5d 13 be
       0.008256361 -0.064190336 0.058431078 -0.14391126
000050 f4 6b a1 bd b3 2f ce bd cb 42 f7 3c 82 a5 b3 be
       -0.078819185 -0.10067692 0.030183217 -0.3508721
000060 71 58 82 3f d8 bc 03 40 8b 02 dc 3e c5 0f 78 bf
       1.018324 2.058401 0.4297069 -0.9689906
000070 36 f9 6d bf db a8 25 bf ee 2e d0 3f b3 51 06 bf
       -0.9295839 -0.6471078 1.6264322 -0.52468413
000080 8e fd a0 3c c1 f5 55 bd 56 e6 ba 3d 96 2e fc bd
       0.019652154 -0.052236322 0.09125964 -0.12313573
000090 fe 47 48 3e 73 ff 59 be c9 e9 8f be 2b e8 c3 bd
       0.19558713 -0.21288852 -0.2810805 -0.09565767
0000a0 e0 fd e9 bc 4f 84 03 3f a2 37 c1 3f 0a b4 a2 3f
       -0.02856344 0.5137376 1.5095103 1.2711194
0000b0 c3 26 12 40 87 98 e7 3f cb f9 b1 bf 6f b7 fc 3f
       2.2836158 1.8093423 -1.3904356 1.974348
0000c0 31 0d 94 3f a9 2b 7f bf eb b6 11 40 3f 56 59 3f
       1.1566526 -0.99675995 2.2767894 0.84897226
0000d0 8b 92 37 3f 0a a2 10 40 c6 83 14 40 20 b9 ee be
       0.7170798 2.25989 2.3205428 -0.46625614
0000e0 87 18 08 c0 f6 86 fc 3f 68 eb 0a 3d c8 cb 56 3f
       -2.126497 1.9728687 0.033915907 0.83904696
0000f0 01 3e 32 3f b1 6b 55 3e 12 5a 9a 3f 64 79 03 3f
       0.6962586 0.20841862 1.2058737 0.513571

l2.bias f4 [8]
000000 ae ce 43 3f 00 00 05 3f 49 81 13 be 85 70 7d 3f
       0.76487243 0.51953125 -0.14404787 0.98999816
000010 fd 91 fa bd 65 32 c0 3e e7 0b 56 3e 07 e9 8c 3e
       -0.12234876 0.37538448 0.20902978 0.27521536

l3.weight f4 [20, 8]
000000 86 b9 3f 3f 42 d1 cb bf 52 29 b4 3c 9c ad 0b be
       0.7489246 -1.5923235 0.02199236 -0.13640445
000010 ba f1 8a be 4a c2 90 bf 0d 1f 2c 3f 22 c9 fe bf
       -0.27137548 -1.1309292 0.6723488 -1.9905131
000020 4f 13 c1 3d 66 36 13 bf 68 c2 91 be ce f7 1e c0
       0.09427511 -0.5750488 -0.28468633 -2.4838748
000030 8a 0c 14 be 72 d1 3b 3e fa a8 38 3e fc d7 ee 3e
       -0.14457908 0.18341616 0.1803321 0.46649158
000040 2c d3 ff bf cb 73 e4 bf 12 02 74 3e d0 fd cd 3e
       -1.998632 -1.7847837 0.23828915 0.40232706
000050 cb 18 0f bd a8 33 83 be 70 f0 1b 3f 72 45 08 bf
       -0.034935754 -0.25625348 0.60913754 -0.53230965
000060 28 6c e0 bf 77 9a b5 bf b1 d6 8a be fb f9 42 bf
       -1.7533007 -1.4187764 -0.27116922 -0.7616269
000070 75 8a b0 bd 6a 96 b4 3e a6 4c 98 3d a6 10 4c 3f
       -0.086201586 0.35271007 0.074364945 0.79712903
000080 e6 8f f6 3e 0c 09 0d 3f a5 e1 81 3e 3a 1c 1d bf
       0.4815666 0.5509193 0.25367466 -0.61371195
000090 84 14 a3 bc 3d 06 c6 bd 3e fd 0b c0 c3 3c 9f 3e
       -0.019907244 -0.096691586 -2.1873317 0.31101045
0000a0 f2 d1 19 3f ed 2f fa 3d d1 10 6d 3e 3b 6d 2c 3f
       0.60085976 0.12216172 0.23150946 0.6735417
0000b0 22 d8 75 3d ac 8e e2 bf a7 a3 8e be 39 0c ed bf
       0.060020573 -1.769979 -0.27859232 -1.8519355
0000c0 d4 a2 c2 bf 55 18 b0 bf 09 96 a4 bd 62 4c 06 c0
       -1.5205941 -1.3757426 -0.080364294 -2.098412
0000d0 a5 55 ce bd f4 d7 4f 3f 4e e2 2a 3f 98 5d 5a bf
       -0.10074929 0.81188893 0.66751564 -0.8529906
0000e0 56 5d 40 be 8a 25 32 c0 21 6a 88 be 34 36 52 3f
       -0.18785605 -2.7835412 -0.2664347 0.8211396
0000f0 00 33 60 3e 0c 32 cc bf 74 2c b0 3e 07 dc 26 bf
       0.21894455 -1.5952773 0.34408915 -0.65179485
000100 eb a6 77 be 40 ba 4e bf 98 7e 4a 3e 0b 43 26 be
       -0.24184768 -0.80752945 0.19774854 -0.16236512
000110 6f 14 83 3e 5a ff b6 3e 22 0e e0 3e a3 78 ec bf
       0.25601527 0.35741693 0.43760782 -1.8474315
000120 33 76 05 3f 45 d4 30 3f be 46 bd 3d c3 34 29 c0
       0.5213348 0.690739 0.092420086 -2.6438453
000130 75 1b 88 be e1 07 68 3e d8 e6 82 bf 3a bf e2 3d
       -0.26583448 0.22659256 -1.0226698 0.1107163
000140 45 b7 de be 45 48 11 3e c3 5b 61 3e 86 32 65 bf
       -0.434992 0.14187725 0.2200766 -0.8953022
000150 58 d7 51 3e 63 27 b1 3e f5 46 43 bf a5 77 02 3f
       0.20492303 0.34600362 -0.76280147 0.50963813
000160 96 81 6c be 89 97 11 bf ed ec 62 be 3c f1 fc 3e
       -0.23096308 -0.5687185 -0.22160693 0.49402797
000170 40 38 8a 3e d6 83 72 3e 13 13 00 c0 74 ee c3 3e
       0.2699604 0.23683104 -2.0011642 0.38267863
000180 b2 ac b5 bf ae a1 e4 3e 4d a3 c3 3d 61 d5 56 3f
       -1.4193327 0.44654602 0.095526315 0.8391934
000190 99 e2 99 bd 24 2b b1 bf e3 90 dc bf e4 d7 1e 3f
       -0.07513923 -1.384129 -1.7231716 0.6204817
0001a0 82 9c 2a bf 67 64 5d be d0 f8 b8 be de 28 11 3f
       -0.6664506 -0.21620332 -0.3612733 0.56702983
0001b0 b7 0f 78 3d 98 5d e9 bf 6c b0 85 bd e5 a6 44 3e
       0.06056186 -1.8231688 -0.065277904 0.1920429
0001c0 fd e0 d7 3c 2b a6 1a 3f 9f 37 2a 3e de 9f dc bf
       0.0263524 0.604098 0.1662278 -1.7236288
0001d0 d9 95 ca be 3b 18 d7 bc fe 26 ab 3e 17 c9 55 bf
       -0.3956745 -0.026256671 0.33428186 -0.83509964
0001e0 9a d8 87 bf 8d b7 ed 3e 7f 8c 93 3c 76 4e 18 bf
       -1.0612977 0.464291 0.01801133 -0.5949472
0001f0 74 e2 e1 bd a7 89 10 bf c9 70 7b 3e 42 0d 0b 3e
       -0.11029521 -0.5646004 0.24554743 0.13579276
000200 83 ba 14 3d 92 64 45 3f 85 7a 09 3e e6 d5 8c 3e
       0.036310684 0.77106583 0.13425644 0.27506942
000210 1b 9c 02 be f9 fe 09 bf a2 47 41 bf ca 01 c4 be
       -0.12754862 -0.5390468 -0.7549993 -0.38282615
000220 87 81 d7 3e 4d 20 ce bf fd 38 a8 be ee 99 bf bc
       0.4209101 -1.6103607 -0.3285598 -0.02338883
000230 f1 26 9c be 39 f2 cc bd 32 37 83 bd 8e d2 65 3e
       -0.3049846 -0.10007138 -0.06407012 0.22443601
000240 e5 e7 8c 3f de 67 34 3f d8 2a c2 be 1c ec 37 bf
       1.1008269 0.7047099 -0.37923312 -0.7184465
000250 12 3f 95 be 17 b5 1c bd 7a df 52 bf b2 ed e6 bf
       -0.2914968 -0.03825864 -0.8237225 -1.8041289
000260 f1 43 7b 3f 37 1a dc bf 86 24 96 3e 02 e8 cd bf
       0.98150545 -1.71955 0.2932474 -1.6086428
000270 1a 57 81 3e 73 b7 42 3f 84 28 41 be 7a 27 a4 bf
       0.25261766 0.7606117 -0.18863112 -1.2824547

l3.bias f4 [20]
000000 96 15 5e 3e ca 4a b7 be 67 c8 85 3e 93 87 91 bd
       0.21687922 -0.35799247 0.26129457 -0.07105937
000010 a5 8c ee be 20 fd b7 3e 97 1c 16 3f 85 c1 a3 3e
       -0.46591678 0.35935307 0.58637375 0.3198358
000020 ce 78 ac be 35 db 86 bc 38 5d b4 be b2 8c 91 3e
       -0.33685917 -0.016461948 -0.3522737 0.28427655
000030 b9 5d ef bd 46 b6 50 3e e7 8f 69 be 3a d3 e2 be
       -0.11687798 0.20382032 -0.228088 -0.44301778
000040 be 5c ea 3e c0 4d 9e be 78 b7 f7 3e 92 3f bb 3e
       0.45773882 -0.30918694 0.48382163 0.36571938
