data.pth (torch, 25834 bytes, 6 tensors)

l1.weight f4 [8, 448]
000000 ca 87 4d 3f 83 79 d5 3f 87 be 9d 3f 6a 33 90 3f
       0.8028532 1.6677707 1.2323769 1.126569
000010 fa d1 ab 3f cb 51 0f 3e 45 69 1e 3f 6e 2f 8b be
       1.3423455 0.13996045 0.6187938 -0.27184623
000020 75 e1 69 be 67 de 9c 3e d4 9f 08 be 96 ca 7f 3c
       -0.22839911 0.3063843 -0.1334222 0.015612265
000030 1a 4d 33 3f 1e 4c 9d 3e 0d da cb 3f 1b ca a5 bd
       0.7003952 0.30722135 1.5925919 -0.08095189
000040 98 03 a2 3f fe d1 80 3f 59 82 92 3e 8d bf 82 be
       1.2657347 1.0064085 0.28615072 -0.25536767
000050 b7 ae ba 3f 06 ee 56 3f 67 3d 4e bd 9d d7 1e 3f
       1.4584569 0.83956945 -0.050351527 0.6204775
000060 63 c9 ee 3b 3a c8 f0 3f 0b 8b 51 3f 0d bd 92 3f
       0.0072871908 1.8811104 0.8185279 1.1463944
000070 ad 2b 9d 3e 91 1c 98 be 5c 49 bb 3f 40 61 e6 3f
       0.30697384 -0.29709294 1.4631763 1.7998428
000080 9f 23 b4 3f e3 f1 d5 3d 57 cd 99 3d 0e aa 30 3f
       1.4073371 0.10446527 0.075098686 0.6900948
000090 ec bc 21 3e 4c 8a 9e 3f ae 93 9f 3f 12 2c ec 3e
       0.15794724 1.2385955 1.2466943 0.46127373
0000a0 8a dc 94 3f 68 b8 4c 3f 3e 15 44 3e b4 e8 6e bf
       1.1629803 0.7996888 0.19148728 -0.93323827
0000b0 a0 1e 66 bd f9 d0 a4 3f 5a 4f 19 40 a3 a5 95 bf
       -0.05618155 1.2876273 2.3954682 -1.1691173
0000c0 88 74 4f 3f 64 71 ff 3e de e7 31 3f cb f7 22 40
       0.8103719 0.49891198 0.69494426 2.546374
0000d0 5d d4 15 3f 9d 4f 08 be 02 02 e1 3f ec 6f e0 3f
       0.58527166 -0.1331162 1.7578738 1.7534156
0000e0 20 e0 ed bd 07 26 03 bf 11 8a 2b be 26 7c 11 3f
       -0.11615014 -0.512299 -0.16751887 0.5683006
0000f0 fb ca 3a 3f 53 5c dd be c4 77 52 bf 53 29 7f bd
       0.72965974 -0.432345 -0.82214 -0.06229527
000100 25 80 97 3f a1 41 86 3f 95 9b c1 3f f3 9a 0b be
       1.1835982 1.0488778 1.5125605 -0.13633327
000110 55 1f 11 40 fb e8 de 3e ea e5 e6 3f df ed 0c 3f
       2.2675374 0.43537125 1.8038914 0.5505046
000120 06 43 80 3f 17 dd 28 3f 4e 1a bb 3e db fc 86 3f
       1.0020454 0.65962356 0.36543506 1.0545915
000130 91 8e 66 3f 17 1b 94 3f 63 b8 52 3e 09 8e 59 3f
       0.9006129 1.1570767 0.2057815 0.84982353
000140 cd 03 37 3f c3 fb 14 bf cd 08 84 3f 74 3e 89 bc
       0.71490175 -0.5819666 1.0315186 -0.016753413
000150 04 97 a7 3e 74 07 54 3f 10 40 b4 3f 1b f2 b2 be
       0.32732403 0.8282387 1.408205 -0.34950337
000160 d3 82 18 3f 96 6e 00 3f 1c 43 78 3f e6 08 30 3e
       0.5957462 0.5016874 0.969774 0.17190894
000170 f7 bc 33 be 40 5b 9d 3f 94 1b 8d 3d 13 03 69 3f
       -0.17552553 1.2293472 0.06890026 0.91020316
000180 53 ef 8c 3f b9 3f 96 3f 5d 8e fa 3e a1 34 3e bd
       1.1010536 1.1738197 0.4893674 -0.04643691
000190 f5 ae 4d 3f b3 c7 69 be ef 17 6e 3e 24 37 9e 3f
       0.8034509 -0.22830085 0.23251317 1.2360578
0001a0 b5 03 5a 3f dd 6f 8c 3f 5b 2f 25 3f 3d 1f aa 3f
       0.85161906 1.0971638 0.64525384 1.3290783
0001b0 1c 51 c3 3e 7f bd 4e 3e ca 41 8b 3f bd 6e a2 3e
       0.3814782 0.20189475 1.0879452 0.31725112
0001c0 d2 ff 59 3e 90 7d 8e bf 25 01 71 3e fe a4 7e 3f
       0.21288994 -1.1132069 0.23535593 0.9947051
0001d0 c8 00 4a 3d 08 73 24 3f 8e e1 94 be a3 fc 1d be
       0.04931715 0.64238024 -0.29078335 -0.15428405
0001e0 c5 18 45 3e bf a1 e1 3d e2 10 37 bf dc a2 b4 3f
       0.1924773 0.11017179 -0.71510136 1.4112201
0001f0 72 e0 97 bd ee 69 99 3f 69 37 21 bf 69 4e ae 3f
       -0.074158564 1.1985452 -0.62975174 1.3617679
000200 a7 01 2f 3f 01 02 d3 3f d5 3a 0f 3f 1f 95 33 bf
       0.68361896 1.6484987 0.55949146 -0.70149416
000210 ba a3 4a 3f ed 36 4f 3f 55 ad 70 be a0 95 8b 3f
       0.79156077 0.80943185 -0.23503621 1.0905037
000220 da 44 9f 3f 9f 74 2f be 9a a6 1c bf 07 02 08 3f
       1.2442887 -0.17134331 -0.61191714 0.53128093
000230 b6 11 08 3f de 86 23 3f 97 1c 8b be e8 e4 03 3e
       0.53152025 0.63877666 -0.2717025 0.1288029
000240 a0 1c 94 be 17 fd 61 be 86 d2 01 3e c9 1a a0 3e
       -0.2892809 -0.22069202 0.12677965 0.31270435
000250 cc 3e c9 3e 4b 49 94 3f 43 38 7b be 5f 6d 7a 3f
       0.39305723 1.1584867 -0.24533181 0.9782314
000260 f7 8f d4 be 09 99 c5 3e b8 1b ab 3f 6e b9 b1 3f
       -0.41516086 0.3859332 1.3367834 1.3884714
000270 ac ce 91 3f 73 e9 93 3d c0 e4 25 3f ff a2 6c 3f
       1.1391196 0.07222261 0.6480217 0.9243621
000280 3c 0b dc 3e d9 f4 cb 3d 8d cb 34 3e 0f fd 9d 3f
       0.4297732 0.0995881 0.17655773 1.2342852
000290 d4 c7 8a 3f 1e 3e 6d bf 7a a2 a1 3d 0b 68 43 be
       1.0842233 -0.9267291 0.07892318 -0.19082658
0002a0 10 a8 ac 3f 18 86 0c be 2b 38 eb 3e 23 09 9b 3e
       1.3488789 -0.13723028 0.4594129 0.30280408
0002b0 41 2c b0 3d 5c a3 a7 be 9e 49 89 3f 0f 5e d8 3d
       0.08602191 -0.3274182 1.0725591 0.10564815
0002c0 3e 83 97 3f 82 0c 39 bf 68 27 c4 3f db bc c5 3f
       1.1836927 -0.7228471 1.5324526 1.5448259
0002d0 61 c4 e2 3e 16 63 fc 3e d0 3d 5b 3f 76 f8 46 3f
       0.4429045 0.49294347 0.85641193 0.7772287
0002e0 ef b6 d0 3e 1a e2 84 3d 4e 43 13 3f 92 d7 9d bd
       0.40764567 0.06488438 0.57524574 -0.077071324
0002f0 2e 70 4f bf b4 f4 45 bf 2d 46 54 3e 5b e4 21 40
       -0.8103055 -0.7732651 0.20729895 2.5295627
000300 bf 52 4f be 89 32 0d 3e 39 7c 62 3f df 94 2f 3f
       -0.20246409 0.13788809 0.884708 0.68586534
000310 c8 80 ed 3d 2b c0 0d 3f cc b4 f9 3c a7 e7 34 3f
       0.11596829 0.5537135 0.030481718 0.70665973
000320 c9 00 35 3f 29 51 ca 3f c0 65 a2 3f 71 2d 18 40
       0.70704323 1.5806018 1.2687302 2.3777735
000330 cb e2 30 3f 08 a3 b5 bd dc 84 2e 3e 6b 79 b6 3e
       0.6909606 -0.08868986 0.1704287 0.3563951
000340 e4 7a 12 bf 7f 63 95 be 88 aa 28 bf d3 5e e5 3e
       -0.57218766 -0.29177472 -0.6588521 0.44798908
000350 79 12 d5 bb 31 ac 12 3f 9b ae 52 3f 2f d6 99 3f
       -0.0065024463 0.57293993 0.82297677 1.2018489
000360 bd 30 ec bd 2b 9b 4c 3f 49 9f d9 3e 8e ff 7f 3f
       -0.115327336 0.7992427 0.42504337 0.9999932
000370 51 f6 b7 be 4b eb 51 3e 03 dc b8 3f 85 8a 32 3f
       -0.35930112 0.20499913 1.4442142 0.69742614
000380 72 46 02 be d3 51 84 be a0 05 90 be 4f 37 a1 be
       -0.12722185 -0.25843677 -0.28129292 -0.3148751
000390 c7 a2 04 bf 34 af a4 3f f6 ef 1c 3f 1c 05 39 3f
       -0.5181088 1.2865968 0.6130365 0.7227342
0003a0 91 8e c0 be c0 8a 80 3f a2 68 09 3f d2 08 8d 3f
       -0.3760877 1.0042343 0.5367528 1.1018317
0003b0 d7 6e de 3f c3 08 3c 3f 9f 23 ba 3e 5a f6 6a 3f
       1.7377576 0.7345087 0.36355302 0.9178215
0003c0 a5 3a a2 3f fe 88 73 3f b5 5f 9a 3f 4f 8c ef 3d
       1.2674147 0.9513091 1.2060457 0.116966836
0003d0 ab b8 39 3f 3d be 1d be aa de c6 3c 63 b5 5e 3f
       0.72547406 -0.15404601 0.024276096 0.86995524
0003e0 75 69 11 3d d4 79 bc 3d d3 7c f6 3e fb 74 a5 3d
       0.035500962 0.09202924 0.48142108 0.08078953
0003f0 45 9a f4 3f 4c 50 ba 3e b6 99 9c 3f 1d 59 dd 3f
       1.9109579 0.36389387 1.2234409 1.729282

l1.bias f4 [8]
000000 f1 b8 b4 3f bc f8 ae 3f 0b 5e 01 40 07 0f 1a 40
       1.411894 1.3669658 2.021365 2.4071672
000010 6a c2 f4 3f 3f da cb 3f 39 b0 ee 3f 12 2f eb 3f
       1.912183 1.5925978 1.8647529 1.837374

l2.weight f4 [8, 8]
000000 cb c5 0d bf fa b6 3d b9 ac cb 73 bf 6d cc 0b 40
       -0.55379933 -0.00018092609 -0.95232654 2.1843522
000010 c3 7c 02 40 76 df 0b 40 4b fa 37 40 63 f1 ee 3f
       2.0388649 2.185514 2.8746517 1.8667415
000020 6b f1 8f bf ed 52 1b 40 c3 67 39 40 03 54 cc 3f
       -1.124555 2.4269364 2.896958 1.5963138
000030 d7 06 fc bf b9 44 82 3e 74 4b 50 40 2e 17 cb 3f
       -1.9689587 0.25443056 3.2546053 1.5866449
000040 dd 4c 50 40 ff da 4b bf 3c ca 3b 40 f8 8f e2 bf
       3.2546914 -0.79631037 2.9342184 -1.7700186
000050 2a 52 e6 3f 04 08 ab 3e 60 0d 40 40 23 7b ef 3f
       1.7993824 0.33404553 3.0008163 1.8709453
000060 a5 5f bd 3e ac fd 54 40 1e 85 db 3e 2a b2 82 3f
       0.36987033 3.327983 0.42874998 1.0210621
000070 53 72 03 bf 06 8f 55 40 5e 95 04 3e db a6 97 3e
       -0.5134632 3.3368545 0.12947604 0.29619488
000080 ef df 5f 40 f8 e4 b1 bf 94 78 4d bf 47 73 1a 40
       3.4980428 -1.3898001 -0.8026211 2.413286
000090 53 a0 26 bf 20 a4 26 40 c8 6f 0c 40 07 54 8e 3f
       -0.65088385 2.6037674 2.1943226 1.1119393
0000a0 8e 06 42 bf 43 f8 78 3f 66 63 3d 40 74 ba b9 3f
       -0.7579125 0.9725382 2.9591918 1.4510026
0000b0 72 a8 6e 40 a8 b5 c9 3f 4e 4f aa 3e 15 33 8f 3e
       3.729031 1.5758562 0.3326363 0.2796866
0000c0 09 e0 07 40 3c 78 7c 40 00 08 e5 3f fb 8e 59 40
       2.123049 3.9448385 1.7893066 3.3993518
0000d0 8a 3a 1c 40 b6 11 63 bf ae dc 40 bf 34 50 7d 40
       2.441073 -0.886989 -0.7533673 3.9580202
0000e0 60 a3 70 3f dd e8 be 3e 97 f0 83 3f f8 4a de 3f
       0.9399929 0.37287036 1.0307797 1.7366629
0000f0 ce a1 22 40 e4 d9 17 40 5a 5c a8 3f 39 1f 2b c0
       2.5411258 2.372674 1.3153183 -2.6737807

l2.bias f4 [8]
000000 4f 2f b7 3e 78 bf c8 3e ce a4 a4 3f a4 07 67 3f
       0.3577828 0.3920858 1.2862794 0.90246034
000010 5f 6c 9a 3f ea c4 a2 3f c7 ed a7 3f 53 26 23 3d
       1.2064322 1.2716343 1.3119439 0.03983147

l3.weight f4 [29, 8]
000000 3f 49 12 bf 3e e5 41 bd a9 10 0f 3f 73 6a 35 c0
       -0.57143015 -0.047337763 0.55884796 -2.8346221
000010 3f ad da bf 14 1c b4 be ef 8f 0b 3e e5 ea 0b c0
       -1.708412 -0.35177672 0.13629125 -2.1862118
000020 90 cd 36 bf dc 1b 5d be 73 15 28 c0 ab 75 10 3f
       -0.71407413 -0.21592659 -2.6263092 0.5642955
000030 f2 aa ff bf f5 a2 07 3e b6 8c 1f bf e0 56 bc 3e
       -1.9974043 0.13245757 -0.6232408 0.3678503
000040 ee 30 c0 3d 42 fd 58 3f e0 64 ec bf ad a8 f0 be
       0.093843326 0.8476144 -1.8468285 -0.4700369
000050 17 b1 bd bf f2 b9 42 bf e9 49 a5 be 1d 81 be bf
       -1.4819669 -0.7606498 -0.3228295 -1.4883152
000060 2c 29 44 3f c0 e1 2b c0 a9 cd 50 bf 25 13 39 bf
       0.76625323 -2.6856537 -0.8156381 -0.7229484
000070 df 97 92 bf 8a f8 71 3f 38 9f 0d c0 6c 2c f7 3e
       -1.1452597 0.94519866 -2.212843 0.4827608
000080 80 de 58 3f b8 b8 aa 3d 21 af 2e bf b1 e8 1b c0
       0.8471451 0.083360136 -0.68235976 -2.4360774
000090 37 77 85 3e 7b c3 1f c0 f1 ef a0 3b 5e d0 f1 bf
       0.26067516 -2.4963062 0.0049114157 -1.8891714
0000a0 4e 17 94 bf 78 e7 7f 3f fc 59 a4 3e ef d2 0a be
       -1.1569612 0.9996257 0.32099903 -0.13557027
0000b0 3a 2b f3 be 0b 1d 86 be e6 7d 3f c0 af 92 6a bf
       -0.47493917 -0.26194033 -2.9920592 -0.9163007
0000c0 5d b8 b5 3e 9e ef 12 3f 94 c2 23 c0 3b a2 e0 3e
       0.3549222 0.57396877 -2.558751 0.43873772
0000d0 f9 b6 a8 3d 44 31 9f bf a0 a5 f2 bf eb ee 00 be
       0.08238024 -1.243691 -1.8956795 -0.1259114
0000e0 d5 ff 30 c0 0a 71 b5 bf 11 16 78 3f b3 d7 5b c0
       -2.7656147 -1.4175122 0.9690867 -3.4350402
0000f0 30 4e 30 bf 3e a4 d4 3e cc 5e 45 be 82 f9 47 3d
       -0.68869305 0.41531557 -0.19274443 0.048821934
000100 ba 67 ff be b7 60 a8 bf 6a 95 9a 3f 96 af db bf
       -0.49883825 -1.3154515 1.2076848 -1.716296
000110 d8 d5 4c 3f f7 8b 40 c0 74 5d 5b bf 67 ff 3b bf
       0.800138 -3.0085428 -0.85689473 -0.7343659
000120 95 6c 5e bf 4b b8 e5 bd 21 84 8a bf 13 a8 40 bf
       -0.86884433 -0.11216792 -1.0821573 -0.7525646
000130 c2 c8 fb be fc 76 5c bd 0d d8 d1 bf 1c b2 a3 3e
       -0.49176604 -0.05382441 -1.6394058 0.31971824
000140 a9 02 76 bf c1 1d f8 bf 76 14 8e 3d 1b 23 21 c0
       -0.9609781 -1.938408 0.06937496 -2.5177677
000150 7d 86 2b 3f a3 b7 e4 bf 3c 9f 95 3f 5d 2e 10 c0
       0.6700209 -1.7868541 1.168922 -2.2528298
000160 9f 25 a3 be d4 4f 82 bf 5b ff 16 3f 0b e0 9c bf
       -0.3186464 -1.0180612 0.5898339 -1.2255872
000170 93 06 7e 3e fb 59 66 bf 51 ca 2b c0 dd 36 ba 3e
       0.24807195 -0.8998105 -2.6842234 0.36369982
000180 01 96 21 c0 2b ed 85 3f 58 d1 4e be 2d 3a 86 be
       -2.5247805 1.0463003 -0.20197046 -0.2621626
000190 1c 26 81 bf 44 59 9f bf 0f c4 f0 3c b0 58 c4 bf
       -1.0089755 -1.2449117 0.029390363 -1.5339565
0001a0 cf e9 c6 be 44 34 3d be c4 42 75 3e 53 8e 25 c0
       -0.38850257 -0.18476969 0.2395125 -2.5868118
0001b0 e9 f3 01 c0 79 97 eb 3e 66 6d ca bf ee ac 15 3e
       -2.030512 0.46014002 -1.5814636 0.14616749
0001c0 da 2b bc 3d 1c 98 00 c0 5d 96 5e bf 46 5d 43 3e
       0.091880515 -2.009284 -0.86948186 0.1907855
0001d0 1e be e0 3e 02 a4 91 bf 7f 75 f0 bf 87 59 d0 3e
       0.43895048 -1.1378176 -1.8785857 0.40693304
0001e0 80 38 8d 3d b5 94 75 bf 5e 0e 01 c0 43 4a 14 c0
       0.06895542 -0.95930034 -2.016502 -2.3170326
0001f0 33 df a7 bf 76 0b d2 3e db 99 4f bd 8c ee 83 bd
       -1.311499 0.4102437 -0.050683837 -0.064419836
000200 f9 95 e4 3e 8a 13 67 3e 75 31 2f be 62 2f 71 be
       0.4464567 0.22566047 -0.1710871 -0.23553231
000210 23 41 46 3f 30 71 5f c0 fc 4e 09 c0 b7 28 a7 be
       0.7744314 -3.4912834 -2.1454458 -0.3264825
000220 2b 33 8b bf 84 7b 5b 3f 0a 56 84 3f d2 e2 b5 bf
       -1.087499 0.85735345 1.0338757 -1.4209845
000230 32 1d 9e bd c3 48 f1 bf 6b 53 18 bf 07 a3 50 c0
       -0.07720412 -1.885033 -0.59502286 -3.2599504
000240 b6 35 64 c0 3e 64 0d c0 2a 4d aa bd ed 29 bb bf
       -3.5657783 -2.2092433 -0.08315499 -1.462217
000250 e1 ea 02 c0 03 eb 2c 3f c4 b7 a1 3f b8 49 ff 3c
       -2.0455859 0.675461 1.2634206 0.031163082
000260 b0 ca 77 c0 e0 4f 67 bf d0 b5 60 3f 43 fb d2 bd
       -3.871746 -0.90356255 0.87777424 -0.103018306
000270 d8 a4 10 3f 1b 19 44 bf d6 b7 80 3e 78 1b 27 c0
       0.5650153 -0.7660081 0.25140256 -2.6110516
000280 d8 04 8e 3e 7b 83 3b c0 d3 91 a9 bf 19 72 0d 3e
       0.2773807 -2.9299 -1.3247627 0.13813056
000290 ab bf c7 be 5d f8 e1 be 1b 1f 34 be d2 bd 97 bf
       -0.3901342 -0.441348 -0.17589991 -1.1854804
0002a0 fd b6 bb bf 34 a0 83 be cd 44 e3 bf 9e bc 39 3f
       -1.4665219 -0.25708163 -1.7755371 0.7255343
0002b0 43 98 b4 3c 2d ea db bf c6 12 85 3f 49 cd 46 c0
       0.02204526 -1.718084 1.0396354 -3.1062796
0002c0 54 52 31 3e 68 e3 16 bf 5d c8 8b c0 5a ea f4 3e
       0.17316562 -0.58940744 -4.3682084 0.47835046
0002d0 8f 0f 66 3d 1f 0c c3 be 6d b9 f2 bd fc 12 7a bf
       0.05616718 -0.38095185 -0.118517734 -0.9768522
0002e0 f2 af 00 c0 27 e6 e5 bf 92 7d fa bd 7b 65 35 3d
       -2.0107388 -1.7960862 -0.12230982 0.044286232
0002f0 65 e5 93 bf e0 2c 85 3e 37 9d 61 bf 6e 3a cb 3e
       -1.1554381 0.260108 -0.88130516 0.39693016
000300 68 b7 00 c0 87 d2 60 bf 25 7e 52 bf e5 5f 59 be
       -2.0111942 -0.8782124 -0.8222373 -0.21227987
000310 e9 ca 49 be 40 9a 3c bf 47 1e 60 3c cf b0 1a bf
       -0.1970631 -0.73672867 0.013679094 -0.6042604
000320 84 89 83 bf b9 01 23 c0 92 f4 ce be 7d 8d 0e 3e
       -1.0276341 -2.5469801 -0.40420967 0.13921161
000330 22 8c 5c 3f 8d 28 14 c0 28 db ae bd e6 6f e3 be
       0.86151326 -2.314975 -0.085378945 -0.4442131
000340 b9 71 91 be 27 63 5e c0 18 64 a2 3e 7f 5a 81 bf
       -0.28407076 -3.4748018 0.3171699 -1.0105742
000350 0b a9 a9 bd da 4d 17 be e0 a5 5c bf 0b 89 2d bf
       -0.082841955 -0.14775792 -0.86190605 -0.67787236
000360 80 f9 01 bf a7 be e7 be f4 8d 0b be 77 5c 0b 3e
       -0.5077133 -0.45262644 -0.1362837 0.13609491
000370 d2 6b 7a be 51 49 f7 bf 1e cb 6e bf 6e 3f 61 bf
       -0.24455193 -1.9319249 -0.9327868 -0.8798741
000380 e1 aa ba bf 63 62 10 bd ad e6 18 bf d4 85 ed be
       -1.4583398 -0.03525008 -0.59726983 -0.46391165
000390 e0 1d 44 c0 09 58 42 3f 45 de 14 3f d5 1c 18 c0
       -3.0643234 0.7591558 0.58151656 -2.3767598

l3.bias f4 [29]
000000 bf 98 aa 3c d6 ed 99 be 06 a5 4b be e7 10 91 3e
       0.020824788 -0.30064267 -0.1988717 0.28333208
000010 a0 f3 11 bf 8b ab 84 3e 32 dc b9 bd 9a 2b 5b 3e
       -0.5701237 0.25912127 -0.09075202 0.21403351
000020 0d d9 ba 3c a2 92 05 bf 02 99 71 be d2 dd 38 3e
       0.022808576 -0.5217687 -0.23593524 0.18053368
000030 4a 4b 94 be ba 58 ea be e6 d5 79 bd f9 d6 33 be
       -0.2896369 -0.45770818 -0.060995005 -0.17562474
000040 64 a3 e3 be f0 22 9f be a9 c7 d0 3d 40 73 00 3f
       -0.44460595 -0.31081343 0.10194332 0.5017586
000050 8c 67 d3 bd f9 d0 2b 3f 24 15 a6 bd ee 86 d9 be
       -0.103224844 0.6711574 -0.08109501 -0.42485756
000060 3f 2d 1b bf e8 3c b1 bd f4 ea 4a be 85 fa bd 3d
       -0.60615915 -0.08654195 -0.1981619 0.092762984
000070 7e 0d 10 3f
       0.5627059
